HeartRatePredictor_Streamed_final/app/src/main/assets/model_v1_20s.tflite (tflite, 4384 bytes, 2 tensors)

arith.constant1 f4 [1, 3]
0.6948744 -1.0566188 -2.0859985
00000000: 4ae3 313f 493f 87bf 0081 05c0

functional_1_1/lstm_1_1/concat_1 f4 [96]
0.5365774 1.7683614 1.949767 -0.11169435 -0.30429947 0.3377546 -0.7461818 -0.16265838
0.45715204 0.054675475 -0.62087065 0.83750993 0.18384668 0.2908818 -0.29629758 -0.3070052
0.7082055 -0.11224367 0.6793216 -1.794066 0.29991892 0.21019027 0.028919348 -0.118947715
-1.0846535 -0.047476415 -0.07265075 0.7060932 -1.7126172 -2.9273047 -0.31696728 0.21217418
0.039749164 0.24595134 0.05540028 -1.2034585 1.8969903 -0.57428056 -0.31262144 -0.4714083
-0.005043893 0.19030029 -0.9096367 -0.6166605 0.12234508 0.70770365 -0.12288236 0.6709183
1.533472 0.05090231 0.97773343 -0.0582567 0.96459985 0.19991395 0.166587 1.8114221
-0.36516374 -0.9424818 0.14328933 1.093007 -0.25722003 -1.9453973 -1.177552 0.6470377
1.0458142 -1.0311985 1.4533379 0.83398837 -0.59313595 0.34997907 -0.009200063 -0.6498628
0.0 0.0 0.0 0.0 0.0 0.0 0.0 0.0
0.0 0.0 0.0 0.0 0.34970155 -2.5084891 2.290233 -0.4799967
3.363325 0.6502747 0.4279388 0.14614695 0.05622462 0.22364803 2.5565455 2.434973
00000000: 235d 093f ab59 e23f f791 f93f 02c0 e4bd
00000010: 24cd 9bbe 2cee ac3e c505 3fbf eb8f 26be
00000020: d50f ea3e 64f3 5f3d 61f1 1ebf 0d67 563f
00000030: 4e42 3c3e 76ee 943e 51b4 97be c92f 9dbe
00000040: f54c 353f 02e0 e5bd 05e8 2d3f f4a3 e5bf
00000050: f98e 993e 1e3c 573e 45e8 ec3c dc9a f3bd
00000060: edd5 8abf a176 42bd ebc9 94bd 86c2 343f
00000070: 0a37 dbbf f658 3bc0 8949 a2be 3044 593e
00000080: 05d0 223d abda 7b3e 67eb 623d ee0a 9abf
00000090: 94d0 f23f 0d04 13bf eb0f a0be 6e5c f1be
000000a0: 3e47 a5bb 14de 423e f3dd 68bf 76dd 1dbf
000000b0: 0f90 fa3d 112c 353f bfa9 fbbd 4dc1 2b3f
000000c0: cf48 c43f f17e 503d bd4c 7a3f 949e 6ebd
000000d0: 04f0 763f 3eb6 4c3e c895 2a3e aedc e73f
000000e0: bef6 babe 7d46 71bf 70ba 123e a7e7 8b3f
000000f0: 58b2 83be c702 f9bf 06ba 96bf 43a4 253f
00000100: 3ddd 853f 50fe 83bf fa06 ba3f 4380 553f
00000110: c2d7 17bf 7530 b33e dcbb 16bc 695d 26bf
00000120: 0000 0000 0000 0000 0000 0000 0000 0000
00000130: 0000 0000 0000 0000 0000 0000 0000 0000
00000140: 0000 0000 0000 0000 0000 0000 0000 0000
00000150: 150c b33e 168b 20c0 2d93 1240 21c2 f5be
00000160: b840 5740 6778 263f cb1a db3e 8ca7 153e
00000170: ca4b 663d fd03 653e 719e 2340 99d6 1b40
