HeartRatePredictor_Final/app/src/main/assets/model_v1_20s.tflite (tflite, 9788 bytes, 8 tensors)

arith.constant3 f4 [1, 4]
000000 14 15 2c 3f f5 79 14 bf cb 0e 91 3e 05 32 e2 3d
       0.6721966 -0.5799859 0.283316 0.11044697

arith.constant4 f4 [4, 8]
000000 69 5b 1f 3e 0e fc 2e 3f 0e 8b 5f be 6c 6c 7f 3e
       0.15562214 0.68353355 -0.21830389 0.24943703
000010 4f d8 26 3f ce 90 e8 bc 73 45 86 bd f4 6f 94 3e
       0.6517381 -0.02838936 -0.06556215 0.28991663
000020 e5 05 6d be fa eb d5 3e c8 0a 17 3f c3 74 33 3e
       -0.2314678 0.41781598 0.59000826 0.1752501
000030 c8 83 84 be b1 37 91 bd d0 9e 02 3f 5a 85 ad 3e
       -0.2588179 -0.070907004 0.5102358 0.33890802
000040 31 da 80 3e a9 aa d7 bc d0 76 7f be b0 3d 04 bf
       0.25166467 -0.026326494 -0.24947667 -0.5165663
000050 b6 92 7c be 3b f5 09 bf d9 d0 80 be dd 1a d5 be
       -0.24665341 -0.53889817 -0.25159338 -0.41622058
000060 55 8e 90 3d cd ba ef be ab 24 81 be a0 e2 7e bf
       0.07058398 -0.46822205 -0.25223288 -0.9956455
000070 59 64 bb 3e eb b8 31 3f 70 48 89 bf 3c 29 21 3d
       0.36599997 0.6942279 -1.0725231 0.039345965

arith.constant5 f4 [8, 8]
000000 a7 48 f9 be 65 1d 15 bf fb 77 65 be 12 71 76 3e
       -0.48688242 -0.5824798 -0.2240905 0.2406657
000010 8b 16 0b 3e 9b d0 ab be 69 79 06 3f db 56 78 be
       0.13582818 -0.3355759 0.5252901 -0.24251883
000020 1c c2 af be de bd 41 3e 83 f3 58 bf 65 a7 43 3e
       -0.3432778 0.18920085 -0.8474657 0.19106825
000030 b2 8e 24 3f 91 5d 06 3f 08 60 fa 3e d7 bb 57 3e
       0.64280236 0.5248652 0.4890139 0.21067749
000040 85 ea 5e 3e 87 40 f0 be 3d f0 4b 3f d5 ff 75 3f
       0.2176915 -0.4692423 0.7966345 0.96093494
000050 54 b0 cc be 70 61 0e bf 8c fe d1 bd c8 c8 9e bf
       -0.39978278 -0.5561743 -0.10253629 -1.2405024
000060 0b 60 3e 3e 3c 5b 27 bf 16 29 d0 be 3a 27 91 be
       0.18591325 -0.6537359 -0.40656346 -0.2835024
000070 71 4c 8a 3e 2a dc 6c 3e e7 d0 07 bf 1d dc cd bb
       0.27011445 0.23130861 -0.53053135 -0.006282343
000080 00 6f 2e bf a8 62 06 3f 7f d2 e1 bc b9 f6 33 bf
       -0.6813812 0.5249429 -0.027566193 -0.70298344
000090 3b 39 6e 3e a4 e5 52 be d6 1e 3f 3e 40 ac 2f 3f
       0.23264019 -0.20595413 0.18664107 0.6862221
0000a0 e1 c0 94 be fb c3 f2 3d 7c 52 88 bd e8 0a 18 be
       -0.29053405 0.118537866 -0.06656358 -0.1484791
0000b0 8a c3 1a 3d 95 0e 64 3e 5f c8 05 bf 5d 4a b5 be
       0.037784137 0.22271188 -0.5225887 -0.35408297
0000c0 68 1a 21 3f 13 0b 1b bf d2 86 eb bd a6 20 3b 3f
       0.6293092 -0.6056377 -0.11500324 0.7309669
0000d0 d7 5b 4a bf 8b 36 5d be ce 0b 51 3e 00 26 b7 bc
       -0.79046386 -0.21602838 0.2041466 -0.022356987
0000e0 42 bc e9 bd eb 6a 21 3f 53 9b ae 3d ab 67 ad 3e
       -0.114128605 0.6305377 0.085257195 0.33868155
0000f0 95 ea 33 be 46 ea 30 3e cf 16 4f be c6 bb c8 be
       -0.17569955 0.17276868 -0.20223545 -0.3920576

arith.constant7 f4 [8]
000000 27 48 ed be 6e 16 00 be 00 22 69 be 5e 3b d0 be
       -0.4634411 -0.12508556 -0.22766876 -0.40670294
000010 f2 35 9a 3e f1 b0 37 bf 7f bd 78 3d 3c 73 aa be
       0.30119282 -0.71754366 0.060727593 -0.33291042

arith.constant8 f4 [4]
000000 26 7c 6d 3d 80 36 d7 3e e1 45 27 be d0 6a f6 be
       0.057979725 0.42033768 -0.1633525 -0.48128366

arith.constant21 f4 [8, 3]
000000 e9 92 95 bf 11 f1 97 be 70 77 22 bd e8 6c 85 3f
       -1.1685458 -0.29676107 -0.039664686 1.042386
000010 19 d6 55 3e 1c 2c 89 bd 20 e8 6b be 8a 46 d2 bd
       0.20882453 -0.06697866 -0.23037767 -0.102673605
000020 f0 a7 21 bf d2 12 3e bf 79 78 2d 3d fe 2c 97 3e
       -0.6314688 -0.7424747 0.04235122 0.29526514
000030 c5 36 72 3f 91 23 1f be 17 68 3a bc d8 48 9e 3d
       0.9461482 -0.15540911 -0.011377356 0.077287376
000040 7f a8 e5 3d 09 e4 27 3d b7 40 31 3f 3c 51 91 3e
       0.11213779 0.040988956 0.6923937 0.2838229
000050 15 0f 62 bd 72 2e 90 3f 07 7b 66 be 0b 41 08 3f
       -0.055190165 1.1264174 -0.22507869 0.5322425

arith.constant22 f4 [8, 8]
000000 36 44 7a bd 14 c7 e2 3d 2c 62 01 3e 4a 43 10 3e
       -0.061100207 0.110731274 0.12635106 0.14088169
000010 60 80 07 3f 1c ba 92 be 9a 83 f2 3e 6c 6c e0 be
       0.5293026 -0.28657615 0.4736603 -0.4383272
000020 34 a7 0a 3f 96 27 62 3e 78 de f8 3e f0 a8 ff 3e
       0.5416138 0.22085413 0.4860723 0.49933577
000030 5f e5 5b 3e 42 6a 81 3c 39 bc a5 bd d8 04 55 3e
       0.21474217 0.015797738 -0.08092541 0.20802629
000040 19 3b bb bd 06 c7 67 bf c1 f7 c3 3e 94 94 ac 3e
       -0.09142131 -0.9053806 0.3827496 0.33707106
000050 8c 57 e5 bd eb d0 be 3e b4 2b a2 3e d5 21 a0 3e
       -0.11198339 0.37268767 0.31673968 0.31275812
000060 2c f8 4c 3e f4 76 25 be 9c c1 88 be 73 93 ea bc
       0.20016545 -0.16158658 -0.26710212 -0.028634762
000070 51 6c b7 3e 06 4f 9d 3c 07 4a 19 bf b9 f4 2d be
       0.35824826 0.01920272 -0.5987858 -0.16987886
000080 61 05 45 3e a1 2c 8e bd f7 73 37 3e fa 48 ab 3e
       0.19240333 -0.06942106 0.17915331 0.33454114
000090 ad 73 70 3e 2c 4c 96 3e fb a6 ce 3d 8a aa 19 bf
       0.23481627 0.2935499 0.10090443 -0.60025847
0000a0 5a 48 c3 3e 06 c3 2c be 48 95 f2 3e 6e c3 01 bf
       0.38141137 -0.1687127 0.47379518 -0.5068883
0000b0 49 69 bd 3e db d1 7c 3e 64 cc 0c 3e de 81 74 bb
       0.3699439 0.24689429 0.13749844 -0.0037308852
0000c0 f0 a5 ce 3e 4a 52 86 3b bd 61 0a 3f 8a f9 52 3e
       0.40360975 0.004099165 0.54055387 0.20603004
0000d0 23 e9 ea be 5e 8b 26 be 81 a5 5b be 72 e1 d6 be
       -0.45880994 -0.16264102 -0.21449853 -0.41968876
0000e0 34 03 5b 3f 50 63 1a be 42 58 f6 be e8 5f 72 3e
       0.8555176 -0.15076947 -0.4811421 0.23669398
0000f0 c8 b4 5e be 15 a3 e6 3d 85 f7 8b 3e 5d ef 4b be
       -0.2174865 0.11261574 0.2733728 -0.19915529

arith.constant23 f4 [8]
000000 46 e7 d8 3d a6 d5 33 3c ed db 90 3e 8d 7b 82 be
       0.10590987 0.010976231 0.2829279 -0.25484887
000010 e9 50 28 3e fc 39 1a bd 64 4c e0 3d 9e 9d 99 3e
       0.16437115 -0.037652954 0.1095207 0.30003065
