HeartRatePredictor/app/src/main/assets/model_v1_rnn.tflite (tflite, 8412 bytes, 4 tensors)

arith.constant3 f4 [1, 3]
0	0x3f19c837	0.6007113
1	0xbfa43835	-1.2829653
2	0x3ed7af92	0.42126137

arith.constant17 f4 [3, 3]
0	0x3c49179e	0.012273697
1	0x3e42937c	0.19001573
2	0x3e55bdc2	0.20873168
3	0xbf3ce569	-0.7378755
4	0xbe2a1e49	-0.16613115
5	0xbeb62f1a	-0.3558281
6	0x3f823229	1.0171558
7	0xbe2ea8f9	-0.17056645
8	0xbf315429	-0.69269043

arith.constant18 f4 [3, 3]
0	0x3f31d5ed	0.6946705
1	0xbec36311	-0.3816152
2	0x3f3c428c	0.7353904
3	0x3f63598c	0.8880851
4	0xbead3898	-0.3383224
5	0xbf1d0b5b	-0.6134545
6	0xbe36159f	-0.17781685
7	0x3e2527f9	0.1612853
8	0xbf1bccf6	-0.6085962

arith.constant19 f4 [3]
0	0xbd9112e9	-0.07083685
1	0xbd4c288b	-0.049843352
2	0xbe1eb9b4	-0.15500528
